0_ejecucion_modelo/Fibrillation_Prog/experiments/experiment_52344.ckpt (torch, 639362 bytes, 44 tensors)

classifier.0.weight f4 [300, 20]
000000 87 75 96 bd 14 bd cb 3d 6e e8 36 bd 34 7f 11 3c
       -0.07346635 0.09948173 -0.044655256 0.008880425
000010 27 ca b7 3d 74 7d af bd a1 9a 03 3e f5 04 1a 3e
       0.089741044 -0.0856885 0.12851955 0.15040953
000020 8d d3 2c be 59 d8 7a 3d 7c 3d 05 3e 17 48 6f be
       -0.16877575 0.06124148 0.13011736 -0.23367344
000030 d9 68 8a 3d fd 7f 0c 3e 62 c5 96 bd 30 14 78 3d
       0.06758279 0.13720699 -0.073618665 0.060566127
000040 d0 fb 46 3e f1 53 33 be c0 30 b4 3b ae 8f 13 3d
       0.19431996 -0.1751249 0.0054989755 0.036025696
000050 f2 62 39 3d 11 68 a0 bd eb 24 01 be 42 5d ca bd
       0.045260377 -0.07832349 -0.1261174 -0.09881069
000060 49 ba 50 3d e3 dd 5b bd ef f3 41 bc a3 b1 5f bd
       0.050958905 -0.053678405 -0.011837943 -0.054612767
000070 33 ee d3 bc 16 f0 82 bc 91 38 65 bd 45 8a fd 3d
       -0.025870418 -0.015983623 -0.05596215 0.123798884
000080 21 c0 e5 3c b0 dd e8 3c 6d c5 cb bd 15 f5 7d 3d
       0.028045716 0.028426021 -0.09949765 0.062001307
000090 d5 5f 2a bd ce 12 93 3b 51 ee 90 be 50 76 cc 3c
       -0.0415953 0.0044883257 -0.2830682 0.02495876
0000a0 ee d9 c1 3d 48 84 8d bc 97 be c2 bd bf 34 fa 3c
       0.09465395 -0.01727499 -0.095090084 0.03054273
0000b0 a7 34 b6 bd f5 c9 e6 bc 6f 73 46 3c a8 02 f0 bd
       -0.088967614 -0.028172472 0.012112482 -0.11719257
0000c0 37 79 06 3e 34 9b d3 bd 3f ec 7d 3e 8a d5 93 3c
       0.13132177 -0.10332337 0.24797152 0.01804616
0000d0 58 78 61 bd ce 0c 8a 3d 3c 2d 93 3c 77 fa 70 bd
       -0.05504641 0.067407236 0.017965905 -0.058832612
0000e0 5a 7c 3c be d6 c7 af 3d 36 65 81 bd 51 43 b1 bd
       -0.18406811 0.085830376 -0.063181326 -0.08655418
0000f0 41 57 34 be e6 fc 90 be 7a de 23 bd a4 80 f6 bc
       -0.1761141 -0.28317946 -0.040007092 -0.030090638
000100 8a 6a 4b 3e ef 9f b0 3c 6a 77 84 bd e9 d3 d6 bd
       0.1986486 0.021560637 -0.06468089 -0.104896374
000110 6f d0 9f 3e 60 21 41 3e d7 05 51 3e e8 9e 70 ba
       0.3121371 0.18860388 0.20412384 -0.00091789523
000120 4a 73 27 be cc 4e 08 bd 37 5b 38 3e 7f 08 39 bc
       -0.16352573 -0.03327827 0.18003546 -0.0112935295
000130 a8 3e 42 bd 3c 81 6c 3e 03 21 54 3e fc 52 3d be
       -0.047423035 0.23096174 0.20715718 -0.18488687
000140 6a c2 39 bd 15 4f 05 be c2 1a f0 bd d9 c6 af 3d
       -0.045351423 -0.13018449 -0.11723854 0.08582849
000150 62 49 93 bd a5 15 4f be ae 1f da bc 94 b4 df 3c
       -0.07191731 -0.202231 -0.026626434 0.027307786
000160 9c 3f 50 3c fb 8b 53 3e df 99 21 be 51 de fc 3d
       0.012710478 0.20658867 -0.15781353 0.12347091
000170 e0 02 45 3e 69 57 17 3b 0c fb 59 3d b7 34 90 3d
       0.19239378 0.0023092872 0.053217933 0.070413046
000180 f7 04 5d be 6e de d6 bd a9 7f 7b 39 f9 75 0c bd
       -0.21583925 -0.10491644 0.00023984782 -0.034292195
000190 af ea 16 3d 67 98 35 bc c3 87 ad bc 71 32 4d 3e
       0.036844905 -0.011083699 -0.0211829 0.20038773
0001a0 ed 7c ce 3c 20 61 91 3d a1 36 01 be cb c7 f2 3d
       0.025206054 0.07098603 -0.12618496 0.11854514
0001b0 27 bd a2 3d a4 44 b5 bd e5 ee 40 be bc 26 f0 bc
       0.07946234 -0.08850983 -0.18841131 -0.029315345
0001c0 bd a5 e7 bc c5 82 41 3d 1a 3f 0d bc f2 b7 a1 3d
       -0.028277272 0.047243852 -0.008621002 0.07896413
0001d0 69 88 e6 3d d3 b7 47 3e 4f 42 11 3e 18 0c 26 be
       0.11256487 0.19503717 0.14185451 -0.16215551
0001e0 c1 9b 9b 3d 85 47 e9 bd 20 2a a9 3e 4f 2e 17 bd
       0.07598067 -0.113905944 0.3303995 -0.036909398
0001f0 6a 7f 13 3e 51 ea d4 bd e7 d3 c1 ba 69 82 1b be
       0.14404073 -0.10396255 -0.0014787883 -0.15186466
000200 7e c3 7b be d5 68 38 3d 9a 62 da bd ea 14 c5 3c
       -0.24586293 0.04502185 -0.10663338 0.024057824
000210 17 3f d7 3a 0a 01 a9 bd ba b1 e7 3d b3 8a 39 3e
       0.0016422 -0.08252151 0.113131955 0.18119316
000220 6f 60 be 3d c7 84 46 3e f3 61 11 3e ea b2 40 3e
       0.09295737 0.19386588 0.14197521 0.1881825
000230 88 af 89 be b9 7d 7c 3e a9 aa eb 3b da bb 1a be
       -0.26891732 0.24657334 0.007191975 -0.15110722
000240 09 e2 6c bc 03 68 7b 3a 09 3c c5 bd 79 3c f7 bd
       -0.014458188 0.0009590389 -0.096305914 -0.12072081
000250 47 51 c3 bd bd 9a a7 bc 1f d9 dc 3c 85 11 ec bd
       -0.09536987 -0.020459527 0.026959 -0.11526779
000260 d4 50 97 3a be a6 b8 3d 86 4f 34 3e 0d 57 a2 bd
       0.0011544474 0.090161785 0.17608461 -0.0792676
000270 e4 08 1f 3e 2d 33 6a 3e 79 fa 0b 3e 67 47 0a be
       0.15530735 0.22871085 0.13669766 -0.135038
000280 ff ff f3 3d b1 61 eb bd 81 74 04 be 1a e3 65 bd
       0.11914062 -0.114932425 -0.12935068 -0.056124784
000290 a4 62 10 3e 74 2e 80 3d fb b7 b6 bd 20 c8 20 bd
       0.14100128 0.0625886 -0.0892181 -0.039253354
0002a0 6b c1 4d 3e d1 4b a9 3d af 22 6b bd 78 c5 89 be
       0.20093314 0.08266414 -0.057406124 -0.2690847
0002b0 9e b4 de 3d 37 15 49 bc 05 ac 0b 3d cc c2 ce bd
       0.10874294 -0.012273124 0.034099597 -0.10095748
0002c0 5e ad 32 bc ed 50 69 be 72 53 23 be 91 29 14 3e
       -0.010905592 -0.22784777 -0.159498 0.14468981
0002d0 f1 c6 b3 3b 43 45 b0 bd 31 05 0c bd ed c1 1d be
       0.005486362 -0.086069606 -0.03418464 -0.15406008
0002e0 35 d2 c4 bd df 23 8b bd 74 ca 82 3a 72 d2 26 be
       -0.09610406 -0.06793951 0.0009978549 -0.16291216
0002f0 5c d6 a6 3d 23 54 c9 bd 05 83 e9 3c 5c 0c 45 be
       0.081463546 -0.09830501 0.028504858 -0.19242996
000300 f0 22 7f 3e c6 31 63 3b 21 cd d1 bc 38 ce 07 be
       0.24915671 0.0034667118 -0.025610508 -0.1326226
000310 cc 1d 07 be 79 4b 5f 3d b7 77 82 bc 5f b7 22 be
       -0.1319496 0.054515336 -0.015926225 -0.15890263
000320 b0 52 2b bd 76 17 cb bd 2d b5 c8 bd 90 ea 84 bc
       -0.041826904 -0.09916584 -0.098001815 -0.01622513
000330 2f 65 4b 3c f9 37 31 be 79 cd 34 3e 62 8d f3 bb
       0.012414261 -0.17306508 0.17656507 -0.0074326256
000340 96 14 bb 3e 95 69 0e 3d 82 8d 45 3e 38 d7 df bc
       0.36539143 0.03476866 0.19292262 -0.027324304
000350 79 b1 54 3e b5 6d 4e be a7 f7 6a bd 56 96 2e bb
       0.20770825 -0.20159037 -0.057365086 -0.00266399
000360 e0 03 73 bc 3e e4 54 bd 44 5b af 3c 9a ef 97 bd
       -0.014832467 -0.05197548 0.021405824 -0.07418747
000370 03 ef 8d bd 13 54 09 bd da 2e d9 bd 39 2e 22 3d
       -0.069303535 -0.033527445 -0.10604639 0.039594863
000380 b3 4d 00 3d 74 d7 8f 3d f4 41 83 3d 12 a2 d4 bc
       0.0313241 0.07023516 0.06409064 -0.025956187
000390 72 2b 07 be 1c f8 80 3d 41 12 78 3e 61 00 bd bd
       -0.13200167 0.06297323 0.24225713 -0.09228588
0003a0 df 5a 5b 3b ba f4 e0 bc 60 11 cf bd 63 fd ea 3d
       0.0033470911 -0.027460445 -0.10110736 0.11474111
0003b0 8b 92 81 3d 43 7f c9 3c a2 1f ee 3d 2c bc 26 be
       0.06326779 0.024596816 0.11627127 -0.1628272
0003c0 60 ff b4 3d 20 f3 68 bc 26 13 5b be 04 7a b2 3c
       0.088377714 -0.014218122 -0.21394023 0.021786697
0003d0 5d dd 89 be f0 e2 92 3c 65 9c ac 3d ba 4a 87 3d
       -0.269267 0.017930478 0.084282674 0.0660605
0003e0 55 76 2a be 76 77 05 3e d3 68 dd ba 61 83 4f 3d
       -0.16646703 0.13033852 -0.0016892202 0.050662402
0003f0 09 ff 50 3e db a9 93 bd c6 62 4b bd a2 7c 3b 3e
       0.20409788 -0.07210132 -0.049654745 0.18309262

classifier.0.bias f4 [300]
000000 11 b6 20 bd c5 b7 8d 3c 42 20 41 bd 02 20 2b 3c
       -0.039236132 0.017299542 -0.047149904 0.010444643
000010 db fa 40 bd 9a f2 9c bd e8 6a 43 3c 7f 5d 0e bd
       -0.047114234 -0.0766346 0.011927344 -0.034757134
000020 0c 2d 20 3c 5f a4 ab ba 89 b2 24 bc 66 33 eb bc
       0.009776365 -0.0013095251 -0.010052332 -0.028711032
000030 76 f7 a4 bd 5e 33 f4 3a 55 a1 18 bc b1 1b d4 bd
       -0.08055012 0.0018631031 -0.009315808 -0.10356844
000040 5e e5 86 bc ec f9 c4 3c fd 16 d8 bc ff 69 d7 3c
       -0.016466793 0.024044953 -0.02637815 0.02629566
000050 03 4f 11 bd 56 55 61 bc e2 2a d0 3c 2b 42 06 3d
       -0.035475742 -0.013753256 0.025411073 0.032777946
000060 c2 28 a3 bc b7 3f 20 bc 89 ae cc bc 83 c8 8e bb
       -0.019916896 -0.009780816 -0.024985569 -0.004357399
000070 19 24 9e bb d1 75 d2 3c ed e3 bf b9 0f 35 a9 3c
       -0.0048260805 0.025690945 -0.00036600177 0.020655183
000080 29 54 36 3d d1 0c b2 3b 51 ce 50 bd 0a d6 32 3c
       0.044513855 0.0054336567 -0.05097801 0.010915289
000090 62 8e 4d bd d8 38 0e bc e1 d5 ff 3c 75 c0 39 bd
       -0.050184615 -0.008680545 0.031229915 -0.045349557
0000a0 2e b8 03 3d 17 bf 6d 3c 97 48 3e bd 9a 95 59 bd
       0.03215807 0.014510891 -0.046455946 -0.053121187
0000b0 84 a2 65 3c 6c e4 0f 3d 2f 36 ae 3b 7c f8 13 3c
       0.0140157975 0.03512995 0.005316518 0.009031411
0000c0 c8 84 23 bd 3d 40 04 bd 67 e5 3d bd ee 2f 72 bd
       -0.039921552 -0.032287825 -0.046361353 -0.05912774
0000d0 10 98 59 bd f7 83 6d 3c f7 49 67 bd 71 5d 3c bc
       -0.053123534 0.014496795 -0.056467023 -0.011496888
0000e0 a4 86 8c bd 4a 0e 92 bd 28 3f 44 3a 0f ea 3f bc
       -0.06861618 -0.07131632 0.00074862177 -0.011713519
0000f0 e5 f3 07 bd f2 64 c7 bc c2 2d b7 3c 9a 29 94 bd
       -0.03319158 -0.024340127 0.022360686 -0.07234497
000100 63 6a 20 bd 14 0d 4e bd c2 c3 a9 bd 88 c9 e4 3c
       -0.03916396 -0.05030544 -0.08289291 0.027928129
000110 df 18 d4 bd 53 8e 8d 3a 76 62 97 3b 4a dd 98 bd
       -0.10356306 0.0010799862 0.0046198918 -0.074640825
000120 20 a2 55 bd ac aa 4c bd 50 3c 66 bd b3 cd 10 3d
       -0.052156568 -0.049967453 -0.056209862 0.03535242
000130 97 f2 14 bd ce e1 11 bd da 1f 66 3d e7 3d 05 bd
       -0.036364164 -0.035615735 0.05618272 -0.032529738
000140 0e e5 99 bc 70 cd 9e bd d8 07 93 bb f5 f4 89 bc
       -0.01878598 -0.07754028 -0.004487019 -0.016840437
000150 ee ca 2d bc e5 a0 55 bd be 8b bc bc 1d 1d 37 3d
       -0.010607464 -0.052155394 -0.023015853 0.0447055
000160 cb 99 d5 3b f2 42 21 bd 78 e2 84 bd 12 17 8b bd
       0.0065185777 -0.039370485 -0.06488508 -0.0679151
000170 29 76 e5 bd 9c ce 0d 3d 37 7a 45 3c 31 a6 65 39
       -0.11204178 0.034620866 0.012053064 0.00021901053
000180 06 f9 8f bc ce 5f 45 3c 10 af 01 bd 4e 08 de bc
       -0.017574798 0.012046767 -0.031661093 -0.02710357
000190 25 55 aa bd d8 8f db bc c6 15 9a bb a6 e5 4c bd
       -0.08317021 -0.026801988 -0.0047023026 -0.050023697
0001a0 6e 7c b3 3b b6 f9 1e bc 66 bf 26 3d 2d d6 14 bd
       0.0054774797 -0.00970309 0.040709876 -0.036337066
0001b0 34 87 d3 bb 17 ff 2b bd 26 1a b7 bb de 42 e1 bc
       -0.0064553265 -0.04199132 -0.005587834 -0.027497705
0001c0 25 c4 90 bd e4 c0 48 3c ae 82 1e bd ff 4c d3 bc
       -0.070686616 0.01225302 -0.038698845 -0.02579355
0001d0 f3 68 eb bc 50 c9 03 3d 5f e6 7d bd 9e 3c 3e bd
       -0.028736567 0.03217441 -0.061987277 -0.046444528
0001e0 b0 9c 12 3d d6 0e 76 bd 88 ef 4f bd 22 84 d7 bc
       0.03579396 -0.060072742 -0.050765544 -0.026308123
0001f0 af de ee 3b 0c 82 9f bc a0 50 7f 3d a6 09 8f bb
       0.0072897295 -0.01947119 0.06233275 -0.004365164
000200 01 4a 5b 3d 14 0f 6f 3c 49 89 8d bd 0e d0 48 3d
       0.053537372 0.014590997 -0.06910951 0.04902654
000210 df 53 67 bd 15 0e 9c bd 85 3d c0 bd fb c7 99 bc
       -0.05647647 -0.076198734 -0.09386734 -0.018772116
000220 c7 b2 4e bc b5 81 80 bd 07 9e bf bd 92 c3 7b bb
       -0.012615866 -0.0627474 -0.09356313 -0.003841613
000230 cc 53 43 bc c0 8f a2 bd 87 ff 87 ba fb 41 ea bc
       -0.011921834 -0.079375744 -0.0010375836 -0.028595915
000240 81 4b 17 3d f4 4c f6 3c 80 de 54 bd d8 09 f6 3c
       0.03693724 0.030065991 -0.051970005 0.03003399
000250 3c 61 2b bd 5d ca 9e bd ee cf ca 3c 2b 6c b9 bc
       -0.041840777 -0.077534415 0.024757352 -0.022634586
000260 88 ab 15 bd 9a 45 b1 bc fe d7 a1 3b 06 74 84 bd
       -0.036540538 -0.021639634 0.0049390784 -0.06467442
000270 1b 32 8e 3b a6 9a 97 bd a0 19 5d bd 13 56 3a bd
       0.004339469 -0.07402544 -0.053979516 -0.045492243
000280 80 f0 42 bd 0b da e1 bc 0e b7 8e bc 8e e4 91 3c
       -0.04759264 -0.027569791 -0.017421272 0.017809179
000290 aa 49 ad bb 17 12 0b bd da 83 ef bc 38 3f df b9
       -0.0052883225 -0.0339528 -0.029237676 -0.00042580976
0002a0 16 33 0a bd 2c 94 05 bd 22 2a 85 3d de 65 0c bd
       -0.033740126 -0.03261201 0.06502177 -0.034276836
0002b0 62 07 49 3c c0 e5 55 3d 20 74 93 bb 90 ce 3d 3c
       0.012269827 0.05222106 -0.004499927 0.011584893
0002c0 75 24 31 3c 78 0e a2 bd c6 d6 92 bd bd eb 4b 3d
       0.010811915 -0.07912916 -0.07169871 0.049785364
0002d0 9f 17 8b bd 25 db 92 bd 7e 5a 62 bd 42 82 2e bd
       -0.06791615 -0.07170705 -0.05526208 -0.042604692
0002e0 6f e2 4b bd ae d0 3c bd a0 f3 ad bd 6d 3c 2c bd
       -0.04977649 -0.04609745 -0.084937334 -0.042049814
0002f0 fc ac cc bd 55 80 2c 3b e4 59 97 3c 04 41 20 bd
       -0.09993932 0.002632161 0.01847548 -0.039124504
000300 57 c8 0f bd e7 01 4c bd a6 6c 56 bd f4 66 d3 bc
       -0.03510317 -0.0498065 -0.05234971 -0.025805928
000310 ee 4c f6 bc 6d 76 a6 bc bc f6 01 bd 4b 11 5f bd
       -0.03006598 -0.020320142 -0.031729445 -0.05445985
000320 d3 80 33 bd 25 af 2a bd ad c5 d8 bc dd d3 cc bc
       -0.04382403 -0.041670937 -0.026461447 -0.025003368
000330 e4 7e f7 3b 51 b2 e1 bc 78 a5 67 bd 06 b6 25 bd
       0.0075529683 -0.027550848 -0.056554288 -0.040456794
000340 b6 63 9b bc f1 a9 06 bc bc 2c 69 bd 46 cd 20 bd
       -0.018968444 -0.008219228 -0.056927428 -0.039258264
000350 87 84 27 bd 6b 0e 42 bc 2d e7 72 3d 92 69 82 bd
       -0.040897872 -0.011844258 0.059302498 -0.06367792
000360 35 05 8e bd bb cf 41 bd 82 3a 92 bc e4 20 7d bd
       -0.06934587 -0.047317248 -0.017850164 -0.061798945
000370 56 fb 14 3d b5 b9 31 3d 9f 08 24 3d 62 95 db 3c
       0.036372505 0.043389995 0.040047284 0.02680463
000380 5c 72 0c bd 48 60 6a 3d c7 40 4b 3d bf ed 8b bd
       -0.03428875 0.057220727 0.049622323 -0.06832456
000390 1e 6e 2b bd 58 d7 8d ba 48 1f 7e bd f1 37 72 3c
       -0.041853063 -0.0010821624 -0.06204155 0.014783845
0003a0 c1 25 67 bd 5a e1 3a bd 16 f9 9a 3c 34 62 94 bd
       -0.05643249 -0.04562507 0.018917602 -0.07245293
0003b0 63 82 c8 bc 8a 17 ba bc 4c 2f 96 bb a1 91 93 bc
       -0.024476236 -0.022716302 -0.004583275 -0.018013777
0003c0 a6 60 60 bd f7 60 b1 bb b6 e8 a7 bc 0e c2 36 bd
       -0.05477967 -0.0054131704 -0.020496707 -0.04461866
0003d0 71 9c 14 bd 51 c9 0e 3d fe 5b 50 bc c3 69 0e bd
       -0.036282007 0.03485996 -0.012717245 -0.03476883
0003e0 f5 4b 8a bc 47 e4 86 bb 12 04 de 3c 18 7e ac 3c
       -0.016881922 -0.0041165682 0.02710155 0.02105622
0003f0 0f 9b 5f 3d 56 98 77 bb 93 c9 4a bc da d7 62 3b
       0.054591235 -0.0037780008 -0.012377161 0.003461352

classifier.2.weight f4 [300, 300]
000000 58 b0 d3 3d d0 5c c7 3d b0 1a 34 be d6 06 e0 3d
       0.10336369 0.097344995 -0.17588305 0.10938804
000010 1d ea 05 3e 87 33 60 bc c8 95 fe 3c 0f 57 f1 bd
       0.13077588 -0.01368416 0.03107728 -0.11784183
000020 9f c2 19 3e b7 12 13 be c6 72 e1 bb c8 3b 2b 3d
       0.15015648 -0.14362608 -0.006880137 0.04180506
000030 78 f5 83 3d 03 f3 80 bd 84 e5 14 be 98 e7 7e be
       0.06443304 -0.06296351 -0.14540678 -0.24893034
000040 4e 5b bb 3d 64 35 26 3e 1d f0 34 3d 69 8c 04 3e
       0.09148274 0.16231304 0.044174302 0.12944187
000050 58 6a ba 3d 90 f5 07 bd d3 c2 c1 bc 6e 01 84 bd
       0.09102315 -0.03319317 -0.02365247 -0.06445585
000060 b7 3a a8 bc 27 13 ab 3c 41 34 9e 3d 5e ee c0 3d
       -0.02053581 0.020883156 0.077248104 0.09420465
000070 04 a7 11 be 61 ab 16 3d f8 1f 85 3c 5a cf e8 3d
       -0.14223868 0.036784533 0.016250595 0.11367674
000080 1f ac 84 bd 48 83 95 3e 8e 61 1e be 65 55 d0 3c
       -0.06478142 0.29201722 -0.15466902 0.025431344
000090 8b e8 1f bd 9b aa d1 3a 0e 3d 17 bd df e7 05 3e
       -0.03904013 0.0015996279 -0.03692346 0.13076733
0000a0 36 f5 6f bd e5 b6 02 be 6f fc 02 be e4 bc df 3d
       -0.05858346 -0.12765081 -0.12791608 0.109247
0000b0 4d c6 23 3d 07 6c a9 bd fa 60 8e be 06 8d 6d be
       0.039984036 -0.08272558 -0.27808362 -0.23198327
0000c0 ce 7c 43 3e f1 66 d6 3c fa 3d dd bd ce 87 c1 3c
       0.19090578 0.026172133 -0.10802837 0.023624327
0000d0 d1 15 f3 3c 07 34 01 3d 94 b3 72 bd 57 63 bf 3c
       0.029673489 0.031543758 -0.05925329 0.023362799
0000e0 19 66 c5 bd 2d 7a 8e bd d0 86 66 be ce ed 2a 3e
       -0.09638614 -0.06956897 -0.22512364 0.16692278
0000f0 83 9f 39 3b f5 6f 95 bd db 7e 01 3e 6e 9e 3e 3e
       0.0028323836 -0.07296745 0.12646048 0.18615124
000100 3b f9 1e 3e 18 c2 23 3e 0a 08 fb 3c 9c 75 e6 bd
       0.15524761 0.1599201 0.030643482 -0.11252901
000110 e6 3f 2e be 7b 12 13 3e c4 68 75 3d c0 1b 8d 3b
       -0.17016563 0.14362518 0.059914365 0.0043062866
000120 a6 99 46 bd f6 7b e4 bd f7 c2 dc bd 15 e5 18 3e
       -0.048486374 -0.11156456 -0.10779374 0.14931138
000130 62 76 b4 3b 9f 8e 49 3d af 46 a5 3d ca 2f 5a 3c
       0.0055072764 0.04920828 0.080701225 0.013317058
000140 ea 10 24 be 86 32 81 be 16 a7 e4 bd e5 5f be bc
       -0.16022077 -0.2523386 -0.111646816 -0.023239085
000150 b4 14 b7 3e e9 a8 86 bd 35 b8 0e 3d 90 ff 84 bd
       0.35757983 -0.06575186 0.034843642 -0.06494057
000160 2a 5f c0 bd c6 9a f3 3b 92 7b cd 3d 59 0f 99 be
       -0.09393151 0.007434222 0.10033335 -0.29894522
000170 bd 7b 78 3d 78 64 89 bc 29 51 f1 3d 3e 5e 6c 3a
       0.06066488 -0.01677154 0.11783058 0.0009016729
000180 c0 de 43 be 67 24 1d be 37 e7 bd 3b af 28 73 ba
       -0.19127941 -0.15345918 0.005795385 -0.00092757767
000190 87 04 80 3c 3c 6e 12 bd 9f 6a 16 3d 0b 51 63 be
       0.015627159 -0.03574966 0.036722776 -0.22198884
0001a0 ab 55 c4 3b 47 f3 bb bd 5c 5f ea 3d 09 f7 b8 3d
       0.0059916577 -0.09177261 0.114439696 0.09031493
0001b0 78 3f fe 3d 69 bb 04 3e 1c cf b7 bd 21 3e 6a be
       0.124144495 0.12962116 -0.0897505 -0.22875263
0001c0 e6 82 04 3e bc d5 a1 3d 96 cc 5b 3d e2 59 0a be
       0.12940559 0.07902095 0.053661905 -0.1351085
0001d0 4f b5 ae bd c4 77 29 bc d9 24 6b 3e 73 df 58 be
       -0.085306756 -0.010343496 0.22963275 -0.21178989
0001e0 15 48 13 3e 0a 4c 43 be d8 a7 a3 3d 96 3d 34 3d
       0.14382966 -0.19071975 0.07990998 0.044004045
0001f0 e7 26 43 3b 07 f8 4e bd d4 f2 f4 bd a0 79 ac bd
       0.0029777826 -0.050529506 -0.11960378 -0.08421636
000200 3d 61 7f 3c f6 da 53 bd 7a 81 12 be eb 7c 17 be
       0.015587148 -0.05172249 -0.14307204 -0.14793746
000210 a7 a7 99 be 7d 47 9d bd 86 1d d1 bd 3e 48 33 3e
       -0.3001072 -0.07679651 -0.10210709 0.17508027
000220 e7 5b 6e be 4d c9 91 3d 28 39 69 3e 94 d2 67 be
       -0.23277245 0.07118473 0.2277571 -0.22638923
000230 00 84 a0 3e 2a d7 65 be 86 85 a2 3d 45 a9 46 be
       0.31350708 -0.2244536 0.07935624 -0.19400509
000240 ce 31 36 3d f7 cc 18 3d 1f c2 fc bd d3 e7 f9 bd
       0.04448109 0.037304845 -0.12341713 -0.1220242
000250 d2 23 60 bd 74 37 bc bd cc 8a 92 3e bd 83 91 be
       -0.05472166 -0.09190264 0.2862152 -0.2842082
000260 d3 4e 51 bd e8 27 6e bd 93 6a 85 3d 7a b9 42 bd
       -0.051100563 -0.058143526 0.06514468 -0.047540165
000270 44 ee 84 bd fa 9b 16 be b0 06 69 3d ca 81 9c bd
       -0.06490758 -0.14707938 0.056891143 -0.07641943
000280 c4 85 13 3b 33 b1 3a be 63 b6 7f 3c b5 5a 27 bd
       0.002251015 -0.18231659 0.015607449 -0.04085799
000290 93 4d 9c 3d f4 c0 11 be 66 f3 ac bc 04 c8 90 3c
       0.076319836 -0.14233762 -0.021112155 0.0176735
0002a0 99 7d 8c 3c 46 fc 99 be fc 9b f8 38 59 43 04 be
       0.017149733 -0.30075282 0.00011854616 -0.12916316
0002b0 e4 b2 e9 3d c3 a9 35 3e dc 37 7d 3d 47 1b 26 bc
       0.11411074 0.1774054 0.06182085 -0.010138339
0002c0 56 70 80 bc 53 2a 42 be 2d cc 20 3d b2 f9 0c be
       -0.015678566 -0.18961458 0.039257217 -0.13767126
0002d0 1e a6 d0 3d 39 60 a1 be 3a d2 69 be fe bd 4b be
       0.10187934 -0.31518725 -0.22834101 -0.19896695
0002e0 cf 6b c9 3d d1 e9 20 3d 9e 1e 19 3e a3 fd db bd
       0.09835016 0.039285485 0.14953086 -0.10741737
0002f0 c5 20 35 3d a5 58 06 bd 61 6d 58 bd 4e 42 72 3d
       0.044220705 -0.03279938 -0.052838687 0.059145264
000300 61 e6 66 3b f9 5f 97 3b de 3b 3c 3d b1 0f 27 be
       0.0035232531 0.004619595 0.04595553 -0.1631458
000310 a9 c8 14 3e 93 96 19 3e b7 6f a1 bc 3f b9 ca 3d
       0.14529671 0.14998846 -0.01970659 0.09898614
000320 12 5e 88 3c 6f a3 62 3d d1 8d 0a be d7 50 ac be
       0.016646419 0.055331644 -0.13530661 -0.33655426
000330 31 b7 cc 3d 98 76 ea bd a1 0f 07 bb 32 a9 ff ba
       0.099958785 -0.11448401 -0.002060868 -0.001950538
000340 a8 0d 81 bc da e0 80 3e c9 8c be 3d 60 1e 9b 3b
       -0.015753582 0.25171548 0.093041964 0.0047338456
000350 b0 ca f0 3d f2 b5 4b 3e c0 82 da 3d 9e d4 b5 bd
       0.117574096 0.19893625 0.1066947 -0.08878444
000360 43 6a 13 3b dc 94 0f 3c 52 de 98 bd 49 a3 3d 3e
       0.0022493757 0.008763518 -0.07464279 0.1851932
000370 f7 e3 11 be 5b ce 14 3e 73 a7 cf 3d b4 77 a0 bd
       -0.14247118 0.14531843 0.1013936 -0.078353316
000380 ba 55 f1 bd 1c 3c 3e bd 70 fc e0 3d b3 be 19 3e
       -0.11783929 -0.046444044 0.10985649 0.15014152
000390 ed 3b 51 3e c1 4e 14 bd f7 45 5c bd 3d ae 2c be
       0.20433016 -0.036207918 -0.05377766 -0.16863342
0003a0 3e 31 70 3d 85 68 82 3d 2f 96 06 be 72 ea aa be
       0.05864071 0.06367592 -0.13143228 -0.33381993
0003b0 f8 5a 0f bc 4a 2c 81 3d 8b 69 13 be c5 56 c5 bd
       -0.008749716 0.063072756 -0.1439573 -0.096356906
0003c0 b7 ec cb bd e6 73 3f 3d d1 c8 a4 3d ed 3b bf bc
       -0.09957259 0.04674139 0.08046115 -0.023344005
0003d0 95 7e 97 bc 13 44 3c 3e dc 93 e4 3b fe a8 48 3d
       -0.018492976 0.18385343 0.006975634 0.04898929
0003e0 11 38 be bd 0e 72 b7 3d 25 a6 ee 3d dd 75 5d be
       -0.092880376 0.08957301 0.11652783 -0.21626993
0003f0 1b 50 7b 3d e3 89 bf bd 54 47 b1 3e 75 b2 bb bc
       0.06135569 -0.09352472 0.34624732 -0.022912243

classifier.2.bias f4 [300]
000000 0b b0 02 3d b1 71 2d bd 14 d5 b3 3d 05 fb 91 3d
       0.03190617 -0.042344753 0.08780876 0.07127956
000010 30 ed ef bc 6f 13 5c 3c 2a 0f d4 3c 32 f3 f6 bc
       -0.029287905 0.013432368 0.025886137 -0.030145261
000020 d4 8e 30 bd 31 60 ab 3c dc f6 75 bc a8 78 f6 bc
       -0.04310496 0.020919891 -0.015012469 -0.03008683
000030 7e bd 95 bc a7 a4 f2 bb b4 bc 1b 3c d3 71 67 bd
       -0.018278833 -0.007404882 0.00950544 -0.056505036
000040 52 57 24 3c e3 49 d8 3b ca de 42 3d 9d ab ed bc
       0.010030584 0.006600605 0.04757575 -0.029012496
000050 f4 4c f6 bc f4 4c f6 bc 27 6c 42 3d 99 ff 0f 3b
       -0.030065991 -0.030065991 0.047466423 0.0021972416
000060 50 df 28 bd fc ab 0e bd f5 4c f6 bc 24 77 7a bd
       -0.041228592 -0.034831986 -0.030065993 -0.061148778
000070 1f dc b0 bb 9f 23 ba 3c bb 48 19 3d d5 0d 24 bd
       -0.005397334 0.022722064 0.037422877 -0.040052254
000080 62 61 68 bd e2 71 48 3c ee bd 49 bd f5 4c f6 bc
       -0.056733496 0.012234183 -0.049253397 -0.030065993
000090 e5 41 de 3c d7 23 84 3b 15 5c de 3d 2e 1d 8d bc
       0.02713103 0.0040325928 0.10857407 -0.017225828
0000a0 e7 3a 88 bc 53 ea 73 3c b5 25 9c 3c b8 b5 85 bd
       -0.01662965 0.01488741 0.019060949 -0.06528801
0000b0 31 64 46 3c 12 28 99 3d 7e ff 40 bd 0b 78 9a bc
       0.012108848 0.07478346 -0.047118656 -0.01885607
0000c0 54 0b 17 bc 8c 45 89 3d 42 83 42 bd 79 81 8d bd
       -0.009219009 0.06702718 -0.04748846 -0.069094606
0000d0 33 33 20 bb e3 67 7f bc 64 38 6e 3c 65 4d 6e 3d
       -0.002444458 -0.015588733 0.014539812 0.058179278
0000e0 4c 03 bd bd 13 91 17 bd 67 56 f7 bc ef f4 32 bb
       -0.092291445 -0.037003588 -0.030192567 -0.0027306636
0000f0 47 3a 87 bc 2a 49 e0 3c 80 7a 70 bc f5 4c f6 bc
       -0.016507281 0.027378637 -0.014677644 -0.030065993
000100 60 96 ff bc 7c 28 01 bd fe 9f 9e bb 36 a3 1b bd
       -0.031199634 -0.03153275 -0.00484085 -0.037997447
000110 5f b7 08 3c c6 90 05 bd e7 f3 44 bc b1 43 95 3c
       0.0083445 -0.03260877 -0.0120210415 0.018220754
000120 cd b6 d6 bc a1 ed bf bb 33 f1 58 bc 9d 1f 88 3b
       -0.026210213 -0.005857185 -0.0132411 0.004154159
000130 ec 0b cf 3b f6 92 2f bd fa 4c f6 bc b2 ec 80 bd
       0.00631856 -0.042864762 -0.030066002 -0.06295146
000140 b9 71 57 3c 8b 1a 5e bc 65 89 be ba b2 e8 c8 bd
       0.013149672 -0.013556133 -0.0014536796 -0.09810008
000150 cf 94 76 3c 41 6e 2d bd 6c 74 23 bd c0 2e 6b bd
       0.015050127 -0.042341474 -0.03990595 -0.05741763
000160 95 00 3b 3b a0 a4 92 3d d6 5f af bc ba dc 35 bd
       0.0028534282 0.07160306 -0.021408003 -0.044399954
000170 dc 28 1d bb b1 56 b4 bb 66 02 51 3b 7f 12 0a bd
       -0.0023980653 -0.0055034985 0.0031892299 -0.033709045
000180 43 32 13 bd 70 e5 3e 3c 7d 98 4c bc 2e 23 8c 3b
       -0.035936605 0.011651382 -0.012487528 0.0042766547
000190 4c 9d a9 bd 27 14 47 bc cb 63 a6 bc c8 6e 7b bd
       -0.08281955 -0.012150801 -0.020311257 -0.061384946
0001a0 c9 9b de bb cb 45 d5 3c 7d a1 15 bc 4a 86 07 3d
       -0.0067934734 0.026034256 -0.00913274 0.033087052
0001b0 d7 5c ad bd c8 9f bc bc a5 f7 88 bb 0b 8e 14 3d
       -0.084649734 -0.023025408 -0.004179912 0.036268275
0001c0 f3 4c f6 bc cf ef b4 bc 77 bf d6 bc ca 59 6c bc
       -0.03006599 -0.022087006 -0.026214344 -0.014425704
0001d0 4f a8 46 3d 2b cb b8 b8 50 94 14 3c 19 6d 5a 3d
       0.048500355 -8.811647e-05 0.009068564 0.0533267
0001e0 f4 4c f6 bc 86 19 36 bc a4 f3 9e bc 33 1e 1c bd
       -0.030065991 -0.011114484 -0.019403286 -0.038114738
0001f0 f1 88 81 bd f4 4c f6 bc 61 3e 01 3c b9 42 1e 3d
       -0.063249476 -0.030065991 0.007888407 0.03863785
000200 e2 ac 9f 3d bb b2 e5 bc 84 f7 5f 3d 9e 0b b3 bb
       0.07796647 -0.028039327 0.05467941 -0.0054640314
000210 a1 47 21 3d f3 4c f6 bc 59 ca c1 bb f5 4c f6 bc
       0.03937495 -0.03006599 -0.0059140143 -0.030065993
000220 fe fd 0f bd 01 50 09 3d 35 97 fe bc b6 27 98 bb
       -0.035154335 0.033523563 -0.03107796 -0.004643406
000230 36 cf ca 3c 34 ad b2 bc 69 9b 01 bd 86 b9 b0 bb
       0.024757009 -0.021811105 -0.03164235 -0.00539321
000240 e1 35 0c bc 52 59 74 bc ee 91 c2 3c c0 a0 10 3d
       -0.008557768 -0.014913874 0.023751225 0.035309553
000250 f5 4c f6 bc 2c be 11 bd ba ba 8f bc 64 a3 f9 ba
       -0.030065993 -0.035581753 -0.017545093 -0.0019045887
000260 c5 dc 84 bd 98 92 b5 bc 68 2d 0d bd 45 ae 1d bd
       -0.06487421 -0.022164628 -0.03446713 -0.038496275
000270 b7 42 b2 bc f4 4c f6 bc f6 4c f6 bc 85 79 00 3b
       -0.021760328 -0.030065991 -0.030065995 0.0019603681
000280 29 82 33 bd f2 4c f6 bc 0c 0b 2b 3b 1e 99 bf 3c
       -0.043825302 -0.030065987 0.0026099114 0.023388442
000290 e3 73 79 bd 93 95 eb bc f4 4c f6 bc f7 bc bd 3c
       -0.060901534 -0.028757846 -0.030065991 0.023161395
0002a0 9d 61 99 bc c4 44 90 bd 36 54 05 bc 10 6d b8 3c
       -0.018723303 -0.07044366 -0.008137753 0.022512943
0002b0 0f 5d 06 3d f5 e0 4e bc f4 4c f6 bc 9e 90 fd 3c
       0.03280359 -0.012626876 -0.030065991 0.030952748
0002c0 f5 4c f6 bc 60 7c 88 3d 1f ca 1a 3d 9a b5 5c bb
       -0.030065993 0.06664348 0.037790414 -0.003367758
0002d0 a6 d2 4a bc 69 48 26 bd 92 72 87 3d 09 89 1a bc
       -0.012379324 -0.0405964 0.066136494 -0.009432086
0002e0 26 84 5d bc 09 18 91 bb 8f 0f 3e ba 54 f2 e0 bb
       -0.013520276 -0.004427914 -0.0007250243 -0.0068648253
0002f0 74 3e 3a bd f7 0a 28 bd d0 86 d7 bc 09 fc ac 3c
       -0.045469716 -0.041026082 -0.0263094 0.021116273
000300 4b a8 67 bc 00 b8 f8 bc 94 7f ab 3c 63 62 bc 3c
       -0.014139245 -0.030361176 0.020934857 0.022996133
000310 16 30 13 bd 56 95 3c bc 36 9c 70 bc 92 12 2d bc
       -0.03593453 -0.011510214 -0.014685681 -0.01056351
000320 f4 4c f6 bc 2e a6 6c bd 5e 6b 42 bd 91 bc 85 bc
       -0.030065991 -0.05777567 -0.047465675 -0.016325267
000330 48 44 88 bc f6 4c f6 bc a1 a5 a9 3b 0c b9 45 bc
       -0.016634122 -0.030065995 0.005177215 -0.012068044
000340 11 30 53 bd 7e 80 35 bd cb 73 52 3d 53 5c c6 3d
       -0.05155951 -0.044311993 0.05137996 0.09685578
000350 8f b6 9b bc c8 29 89 3c d8 3f a6 bc d5 e5 99 3d
       -0.01900795 0.016743556 -0.020294115 0.0751454
000360 33 e3 96 bd ea 4c f6 bc bf b9 23 bd 5f 17 25 bd
       -0.073675536 -0.030065972 -0.039972063 -0.04030549
000370 a8 5b 0f 3c 75 2f 34 3c 50 42 3f 3d c2 a6 29 bd
       0.00874988 0.010997643 0.0466941 -0.0414188
000380 a2 e4 1b 3d 21 42 8a 3c ec 57 ce bc d0 d4 84 bb
       0.038059838 0.016877236 -0.025188409 -0.0040536895
000390 8c 51 56 bd 35 c4 5f bd 73 df 0b bd a9 3b 40 bc
       -0.052323863 -0.054630477 -0.034148645 -0.011732974
0003a0 87 02 34 bd 67 89 fc bc 80 74 87 bd 07 42 2f bc
       -0.043947723 -0.030827237 -0.066140175 -0.0106968945
0003b0 d7 e2 15 3a 08 ac 86 bd 50 d4 a9 bc 87 d7 81 bd
       0.00057177007 -0.06575781 -0.020731121 -0.06339937
0003c0 3d ec bc 3b f0 58 24 bb dd 95 12 bd c1 12 06 bd
       0.0057654665 -0.0025077425 -0.035787452 -0.03273273
0003d0 f3 4c f6 bc 56 14 53 bc db 5b e5 3c eb 4c f6 bc
       -0.03006599 -0.012883266 0.027997902 -0.030065974
0003e0 ab 58 ab ba 35 c2 66 bd a2 c8 86 bd 7f 97 81 3b
       -0.001307269 -0.056337554 -0.065812364 0.0039548273
0003f0 07 f0 06 bd f0 bf 00 3b ae f8 19 bc 95 4b 25 bd
       -0.03294375 0.0019645654 -0.009397669 -0.040355284

classifier.4.weight f4 [3, 300]
000000 64 e4 3a 3d 31 51 19 bc 9a 97 b7 3e 4b 3c 87 3e
       0.045627967 -0.009357736 0.3585785 0.26413187
000010 2c 3c 2a bd 64 0c 1e ba c6 9e a4 3d 68 df 14 3d
       -0.04156129 -0.0006029068 0.08038096 0.03634587
000020 00 1a 50 be e8 0b 0c 3f da 06 a9 bd 7e c0 58 bd
       -0.20322418 0.5470567 -0.0825326 -0.05291795
000030 60 b8 5d 3e ca 16 3a 3e 7a fb 98 3e a0 c5 c7 be
       0.21652365 0.18172756 0.2987936 -0.39017963
000040 07 77 4a 3e 4b 65 c4 3d f0 d7 fd 3e 42 6c d7 bd
       0.19771968 0.095896326 0.4957881 -0.105186954
000050 28 32 d1 bd 00 df 1a be 44 f4 c1 3e 19 57 e8 3e
       -0.10214645 -0.1512413 0.37881672 0.4537895
000060 fa 59 16 bd db a4 ba be 66 ac 60 bd de c9 44 be
       -0.036706902 -0.364539 -0.054851912 -0.19217631
000070 8a d4 cf 3d 80 97 04 3e e3 73 8e be 12 c0 1c be
       0.101479605 0.12948418 -0.2782279 -0.15307644
000080 8c 39 38 3d a0 52 54 bc a6 e7 02 be 2c c3 01 be
       0.044976756 -0.012959152 -0.1278368 -0.12672108
000090 6a 11 82 3e d7 eb 9a be 6c 56 87 3e a4 c0 a8 bd
       0.2540391 -0.30258057 0.26433122 -0.08239868
0000a0 86 d4 fc 3d ac 89 1d 3e de 47 51 3d fb fb 19 bf
       0.12345223 0.15384549 0.05109393 -0.60150117
0000b0 62 33 a4 bd 95 22 66 3e 02 8a 0e 3e 3a 7a 21 be
       -0.08017613 0.2247413 0.13919833 -0.15769282
0000c0 f3 dc 25 3f 47 af fe 3d 82 72 ce be 97 a8 77 be
       0.64790267 0.12435775 -0.40321738 -0.24185406
0000d0 91 89 97 bd f5 4b 23 3e 68 fb f1 3e 93 ce bf bd
       -0.073992856 0.15946944 0.4726212 -0.09365573
0000e0 33 fc 5f be 84 0c 90 bd aa ce 59 bd 0b 6c 62 3d
       -0.2187355 -0.07033637 -0.053175606 0.05527882
0000f0 f2 39 97 3d b2 18 17 3e 09 e2 f9 3c 9f b6 32 bd
       0.07384099 0.14755514 0.03050329 -0.043631192
000100 0b 7c a1 3d 87 b7 64 bc f1 9a 8e 3d a3 00 03 3c
       0.078849874 -0.013959772 0.069631465 0.007995757
000110 14 11 87 3e f0 5c d0 bd bb df a3 3e bc 9c b6 3d
       0.26380217 -0.101739764 0.3200663 0.089166135
000120 00 cd 62 bd e4 fa bb 3b 8e d6 84 bd f9 1c 3a 3e
       -0.055371284 0.0057366956 -0.064862356 0.18175115
000130 53 94 16 3e 25 3f 80 bd 28 a2 14 be 66 86 42 3c
       0.14705019 -0.06262044 -0.14514983 0.011872863
000140 56 dc 0d 3e 74 62 5c be ee 3b a8 3d 6e dd 12 be
       0.13853583 -0.21521932 0.08214556 -0.14342281
000150 41 b4 3e 3e 3a 62 0a be 8f 72 9a bd 0f 53 0f 3d
       0.18623449 -0.13514033 -0.075413816 0.03499132
000160 8a d8 ea 3c c0 c8 51 3e dd 17 ad be bb 2d c0 bd
       0.028667707 0.20486736 -0.3380727 -0.093837224
000170 54 ef 80 be 6e 7c ca 3c 00 72 91 3c 9d 88 3d bd
       -0.25182593 0.024717536 0.017754555 -0.046272863
000180 56 b5 0d 3e d5 fd 4d 3e 31 9d c8 3d e0 11 17 be
       0.13838705 0.2011636 0.09795607 -0.14752913
000190 e6 4d 18 be fb 2e f2 be 91 f0 86 3d bf b2 8e be
       -0.14873466 -0.47301468 0.06588853 -0.27870747
0001a0 d7 9f fd bd 18 b6 2c be 86 cb 00 3d 7e b8 84 3d
       -0.12384003 -0.16866338 0.031444095 0.064805016
0001b0 18 e1 7b be 67 a9 58 be cf 1b 13 3d 27 94 a3 3d
       -0.24597585 -0.21158372 0.035915192 0.07987242
0001c0 10 18 bf 3d e5 f2 d7 bd 2a 06 75 3d 32 6a 93 3e
       0.093307614 -0.10544375 0.05982033 0.28791958
0001d0 81 88 04 3e 37 50 86 3e 06 3f 78 3e fc e2 02 3e
       0.12942697 0.26233074 0.24242792 0.127819
0001e0 86 90 bb bc f7 ec dd bc f0 8e 1d be 20 fc 04 be
       -0.022896063 -0.027090533 -0.15386558 -0.12986803
0001f0 dc b8 82 be 9b ce 83 bd 0a aa 49 3d 80 ad c9 be
       -0.25531662 -0.06435891 0.049234428 -0.39390182
000200 85 1c 91 3e 82 a3 61 be 16 e0 32 3e e6 4c 95 3e
       0.2834207 -0.2203503 0.17468295 0.2916023
000210 56 26 cd be 65 8b 3e bd 30 37 98 3d 34 f7 ec 3c
       -0.4006831 -0.046519656 0.07432401 0.02892647
000220 ab 62 3c be cf cc fc 3c ec f8 bb 3d 78 9a ee bc
       -0.18397014 0.03085938 0.091783375 -0.02912639
000230 e5 6b 6f 3e 59 89 ef bd 0d d8 b5 bb 5c 78 fb ba
       0.23381002 -0.11696119 -0.005549437 -0.001918565
000240 14 43 6b 3d 40 12 c2 bd 92 18 e7 3d b0 5e e6 3d
       0.057437018 -0.09476137 0.11283983 0.11248529
000250 34 c4 7a bc 56 cf 05 bd 09 ae b0 3b ab c9 a5 3d
       -0.0153055675 -0.032668434 0.0053918404 0.08095106
000260 3b 24 83 be 6b a3 22 be ef fa a5 bd 30 aa 96 bd
       -0.2561358 -0.15882652 -0.081045024 -0.073566794
000270 26 2f 97 be be e4 6c bd 9d a7 1f be 18 5b 96 3e
       -0.2952816 -0.057835333 -0.15591283 0.29366374
000280 c2 a6 cb bd 24 5e c6 bc 0f 30 4c 3e 7e 84 65 3e
       -0.09943916 -0.024214812 0.19940208 0.22413823
000290 c4 40 f5 bd bc 01 2c be 05 57 8f 3c 36 16 89 3d
       -0.11975244 -0.16797537 0.017497549 0.066936895
0002a0 43 65 14 3e ab f5 7e bd e3 df a2 bc 7e 22 0d be
       0.14491753 -0.062246006 -0.019882148 -0.13782689
0002b0 87 4d dc 3e 83 37 24 bd 27 3a 3c bd 49 93 cf bc
       0.430279 -0.040092003 -0.045953896 -0.025338786
0002c0 f6 b2 dc 3c bb 0a 82 3e 8b 76 68 3e 82 b2 10 3e
       0.026940804 0.25398812 0.2270147 0.14130595
0002d0 52 65 12 3d 1b 9a ba be 3e 5e d2 3d c9 46 7e bd
       0.035741158 -0.36445698 0.102718815 -0.062079225
0002e0 14 48 53 3e e0 93 98 bd 03 58 8d 3e c8 13 45 be
       0.20632964 -0.0745008 0.2760621 -0.19245827
0002f0 28 e8 68 bd 8a c8 af bc 86 13 a4 bd c1 a6 73 be
       -0.056862026 -0.02145793 -0.08011536 -0.2379408
000300 ea da 8d be d0 13 5e bd ba 91 93 3e e0 99 a5 3e
       -0.2770608 -0.054218113 0.28822118 0.3234396
000310 d7 63 2e bd 89 42 37 bd b1 d6 94 be 0c d5 6f 3d
       -0.042575683 -0.044741187 -0.29070047 0.058552787
000320 bd 57 3f 3d e0 de d4 be 1e 1c b1 be 28 88 96 bb
       0.046714533 -0.4157629 -0.34591764 -0.004593868
000330 dc b8 e8 be 29 a3 8b bc 65 3b dd 3d b5 ad 9b bd
       -0.45453537 -0.017045574 0.10802344 -0.07601491
000340 22 a6 5c be a1 da f2 be cc 82 c0 3e b7 8a b0 3e
       -0.2154775 -0.47432426 0.3759979 0.3448083
000350 bb 8a dc be 1e ac 66 3e be f1 7f 3e 5c 9f 93 3e
       -0.43074593 0.22526595 0.24994561 0.2883252
000360 3e da 5f be ae 74 10 3c 01 70 d0 bd 9c 0e f9 bd
       -0.21860597 0.008816881 -0.10177613 -0.1216099
000370 99 fd ef 3d ad 09 a8 3e 39 45 91 3e 30 87 49 bd
       0.11718292 0.32819882 0.28373125 -0.04920119
000380 cd 39 07 3f 31 88 d5 3d d3 cf 91 be 5b 42 b0 3e
       0.5282257 0.10426367 -0.2847887 0.34425625
000390 87 94 ca 3d 5a fe 70 3c 8c f8 ec 3d aa 1d 01 3e
       0.098916106 0.01470908 0.11570844 0.12608972
0003a0 83 70 3e 3d ec 3b b1 bd 17 1b 2f be c9 27 5f be
       0.04649402 -0.08654007 -0.17100178 -0.2179252
0003b0 44 5a 33 be d5 db 89 bd 38 15 27 be 6b 46 55 be
       -0.17514902 -0.06731383 -0.16316688 -0.20827644
0003c0 7d d3 62 3e 43 35 0d 3d 55 49 8e 3d ff 0b 36 be
       0.22150989 0.034474622 0.06947581 -0.17778014
0003d0 b1 26 1b 3c 0a 64 ee 3c 47 07 62 3e 68 5c 86 3d
       0.009469674 0.029100437 0.22073089 0.06560594
0003e0 25 46 b4 3d e3 e5 b4 39 a4 d4 e5 bd 30 d6 60 3e
       0.088024415 0.00034503554 -0.112221986 0.21956706
0003f0 a3 36 b2 bc 23 1c 8a be b8 0c 68 3d 70 31 d6 be
       -0.021754568 -0.26974592 0.056652755 -0.41834593

classifier.4.bias f4 [3]
000000 45 93 4f 3d cc 19 49 bd 5a af 96 3c
       0.050677557 -0.049096867 0.018394161

encoder_z0.GRU_update.update_gate.0.weight f4 [50, 104]
000000 11 ff 2e 3e 9e 82 f9 3b 07 99 86 3d f6 f0 31 be
       0.17089488 0.0076144477 0.065721564 -0.17377076
000010 ac c5 15 3d cd 77 ee bc 74 f5 24 be 30 a4 07 be
       0.036565468 -0.02910986 -0.16109258 -0.13246226
000020 35 6b 4a be cb eb 6b 3e 9d df a3 bd 4e ed 8c bc
       -0.19767459 0.23039167 -0.08001635 -0.017203
000030 8b c9 3e 3e f4 6a 56 be 5e 9a 76 bc 88 19 1f 3e
       0.1863157 -0.20939237 -0.015051452 0.15537083
000040 a7 e2 3c be b5 e2 8f be 7d 37 3f bd b1 f5 f8 3d
       -0.18445836 -0.2810265 -0.046683777 0.12156237
000050 4f cc 7e 3e c3 4f 13 be 71 98 36 be 60 38 07 3d
       0.24882625 -0.14385895 -0.1783159 0.033012748
000060 ed c5 96 bd cf e6 4a 3e 16 53 a6 be e5 e6 49 3c
       -0.0736197 0.19814609 -0.32485265 0.012323116
000070 78 24 8f 3d 01 3f fe 3d f3 6b 0c 3e b2 e5 fe bc
       0.06989378 0.12414361 0.13713054 -0.031115387
000080 69 a5 f7 3b 56 a4 a4 bd 1b e0 ae 3e e9 be 29 be
       0.00755756 -0.08039157 0.34155354 -0.16576733
000090 21 b6 ac bd 15 50 8f bd 37 c7 8c 3e 74 2c f6 bd
       -0.08433176 -0.06997696 0.2749574 -0.120201975
0000a0 52 3a 5e be 34 23 05 bd ff b1 c0 be 0a df 9d be
       -0.21701935 -0.032504275 -0.376358 -0.30834228
0000b0 41 22 0d bd 4a 5b 94 be fa f8 84 be 6e cb 00 be
       -0.034456495 -0.28975898 -0.25971204 -0.12577602
0000c0 1c b0 61 be 4b 7e 4c be 87 cf 7d be b7 b9 2f be
       -0.22039837 -0.19970052 -0.24786197 -0.17160688
0000d0 f1 68 65 be 13 20 86 be 96 d8 a1 be c2 10 90 be
       -0.22403313 -0.26196346 -0.31610554 -0.28137785
0000e0 ba ff 4c be d0 a1 4e be 08 29 92 bc b8 b8 09 be
       -0.20019427 -0.20178914 -0.01784183 -0.13449371
0000f0 d8 65 ad bd 91 7d 00 bf 42 f2 10 be 6a 08 c0 be
       -0.08466691 -0.501916 -0.14154914 -0.3750642
000100 37 57 ea bd fd f7 c9 be c8 a8 d9 bd b3 c1 97 be
       -0.11442416 -0.39447013 -0.106278956 -0.29639968
000110 33 a4 f4 bc cc 57 c4 be b1 fd 14 be db 43 9e be
       -0.029863453 -0.38348234 -0.145499 -0.30911145
000120 6f 10 70 3d 17 95 71 be e3 fa 76 bd 37 2e fc bd
       0.058609422 -0.2359203 -0.060297858 -0.12313502
000130 e9 0e b2 be 42 0f 19 be c3 49 62 be 8a c1 59 bc
       -0.34777 -0.14947227 -0.2209845 -0.013290772
000140 6b 6c 45 3d f5 ee 21 be 1e a3 63 3e b9 91 3c bc
       0.0481991 -0.15813811 0.22230193 -0.011509352
000150 81 5d e1 3c d4 25 39 3e a3 23 5c 3e 02 04 23 3d
       0.027510406 0.18080837 0.2149797 0.039798744
000160 4f fd e3 3c 39 f4 99 3d cc ae 1a be 63 d1 83 3c
       0.027830748 0.07517285 -0.15105742 0.016091054
000170 d6 90 3c bd 4e a5 31 be 92 6b 0e bd f2 19 2b 3e
       -0.046036564 -0.17348215 -0.034770556 0.16709116
000180 30 82 bf bc 11 03 b7 3c 32 95 47 3d 6f 8b 37 3e
       -0.023377508 0.02234033 0.048726268 0.17924283
000190 06 0a 48 3d 1b 59 fa bb 86 26 60 3e 13 ee 84 3c
       0.048837684 -0.0076400167 0.21889696 0.016226804
0001a0 e4 1d 9e be b8 5f b2 3d 79 2c 92 3d 66 f6 67 bc
       -0.3088218 0.08709663 0.07137389 -0.014157867
0001b0 b6 ca 39 be 54 a8 2a 3e a5 2b 52 3c 43 70 0a bc
       -0.18143734 0.16665775 0.0128277885 -0.008449617
0001c0 31 98 18 be 8b fc 1d 3d 87 17 1d be 84 92 f0 bd
       -0.14901806 0.038570922 -0.15341006 -0.11746696
0001d0 de 61 15 be a8 a7 4e bc 02 32 26 3d 2c d3 10 be
       -0.14588115 -0.012613215 0.040575035 -0.14143056
0001e0 d9 76 26 3d 25 43 f1 bd 15 88 57 bd ed 47 a3 3c
       0.040640686 -0.11780385 -0.052620012 0.019931758
0001f0 0f a5 1d be 60 2f 8f 3d 6a 96 90 bd 0e ec 06 3e
       -0.15394996 0.06991458 -0.07059939 0.13175985
000200 21 bd 80 bd 2e 7e 83 3d 7b b2 02 3e c4 bf 43 bc
       -0.062860735 0.06420551 0.12763397 -0.011947576
000210 d1 04 74 3d 0d 43 a3 bd 3c 19 d3 bd 5d 47 c8 3d
       0.059574906 -0.07971773 -0.103075475 0.097792365
000220 59 8d 52 bd 0a 14 82 3d fa 47 0b be 82 cf e2 3d
       -0.05140433 0.063514784 -0.13601676 0.11074735
000230 0f c5 e9 3c ab 07 64 bd 2a 12 5f bd f7 3c a6 3d
       0.028536348 -0.055671375 -0.054460682 0.08117097
000240 10 c5 08 3e 7a fb 0f 3d 1d da 95 3d 76 3e 9f 3d
       0.13356423 0.035151936 0.073169924 0.07775585
000250 ee 6d 69 3c 5e fd 8c 3d 42 c8 28 bc 8d cb 97 bd
       0.014247401 0.068842635 -0.010301651 -0.07411871
000260 8f 88 ec 3d da 3f 8f bb 7b 02 a6 bb 6e aa eb 3d
       0.11549484 -0.0043716254 -0.0050662137 0.11507116
000270 f0 1a 3f 3e 5e 1b f0 3b 23 02 46 3e 07 2a d6 3b
       0.1866262 0.007327481 0.19336753 0.006535772
000280 79 5d c2 3c 17 47 d2 3d 4c 9d e2 3d ae 5d bf bd
       0.023726212 0.102674656 0.11065158 -0.0934404
000290 43 ec ef bc d4 1f 8e 3e 9d 2b 24 3c 43 1e 48 3e
       -0.029287463 0.27758658 0.010020164 0.19542794
0002a0 e5 5d 7c bc e5 c7 84 3d fb 20 a1 3d b6 5e 8a 3b
       -0.015403246 0.06483439 0.07867619 0.004222716
0002b0 aa cd aa 3d 95 e8 c2 3c 51 5c 6f 3d 46 07 e8 3d
       0.083400086 0.023792544 0.05843765 0.11329512
0002c0 5a b7 8e bd fe 4f 95 3d 00 4c 32 3d 9e 87 d0 bc
       -0.06968565 0.07290648 0.04352951 -0.025455292
0002d0 bd 96 97 3e 5e 7b ec 3d b9 fb 98 3e a0 8e 8c 3e
       0.29607192 0.11546968 0.2987955 0.27452564
0002e0 53 d7 de bd 65 7d d2 3d 99 67 7b bd 48 85 c1 bd
       -0.108809136 0.10277823 -0.061378095 -0.094492495
0002f0 5d fc b4 bd f0 8e 1f be 28 13 04 be cf d5 25 3e
       -0.08837197 -0.1558187 -0.12897933 0.16194843
000300 df ff 61 bc 6e e9 48 be 71 21 65 3d 2f 89 32 be
       -0.013793915 -0.19620296 0.055940095 -0.17435144
000310 c3 e1 a1 3d 40 24 52 3d 87 7f d3 bc 2a aa 85 3d
       0.07904389 0.051304102 -0.025817646 0.06526597
000320 40 bf a2 bc af 7c 43 3d 91 44 0a 3e 57 a5 e1 bd
       -0.019866586 0.04772633 0.13502719 -0.11017864
000330 8f 76 5a 3b 81 c4 07 bc a3 92 5c be 2a 26 cf 3c
       0.0033334827 -0.008286596 -0.21540312 0.025286753
000340 e4 6d 92 bc 85 b7 a8 bd f8 0d 2a bd 56 64 76 bd
       -0.017874666 -0.082381286 -0.041517228 -0.06015428
000350 1b 31 f2 3d db e8 b0 bd a3 9a 4d be 5a 82 0e be
       0.118257724 -0.08638164 -0.2007852 -0.13916913
000360 b8 4f 63 be 60 f1 0d 3e 8d 2b c8 3d 7f 3f cc bb
       -0.22198379 0.13861609 0.09773932 -0.0062331553
000370 b2 c4 50 3e 6a 90 93 3d a4 3b ef 3d f9 ba 31 3e
       0.20387533 0.07205279 0.116812974 0.1735648
000380 ca af 43 be 6c 7a ef bd 27 06 81 bd 40 e0 59 bd
       -0.19110027 -0.11693272 -0.063000016 -0.053192377
000390 18 6b 9d bd fe 45 ed bd 8b c8 36 be 24 ad 65 bd
       -0.07686442 -0.115856156 -0.17849939 -0.056073323
0003a0 c2 2c 99 bd d8 cd d5 bd af d6 9e bd 41 15 ad bc
       -0.0747924 -0.10439652 -0.077557914 -0.021128299
0003b0 89 6a 8d bb 64 2b 50 bd cf ff 76 bb 04 a6 b4 bd
       -0.0043156785 -0.05082263 -0.0037689095 -0.088207275
0003c0 4d 05 7f ba 45 71 b7 bd 5f 59 56 3e 5e fa a0 be
       -0.0009728268 -0.08957151 0.2093253 -0.31441015
0003d0 95 79 01 bd 90 ba 99 3d f5 da b4 3d 19 eb 61 bd
       -0.03161009 0.07506287 0.08830825 -0.055155847
0003e0 1f 7a bb bd ad 2a 84 3d e7 6c 2c 3e a4 db c4 3c
       -0.09154152 0.06453452 0.16838418 0.024030514
0003f0 1f 7f ae 3a c4 03 69 be 0a 0e 04 be e8 46 78 bc
       0.0013313032 -0.22755343 -0.1289598 -0.015153624

encoder_z0.GRU_update.update_gate.0.bias f4 [50]
000000 ce 4e 2d 3d 64 29 3e bd bc 5b d0 bc a3 33 74 3d
       0.042311482 -0.046426192 -0.025434367 0.059619557
000010 73 86 3f 3d ec 19 8e bc 67 b2 2c 3d 51 e1 9a bd
       0.04675908 -0.017346345 0.042162325 -0.07562507
000020 f7 42 68 bd 77 a2 ab 3d ff a1 d8 3c 92 39 3e bd
       -0.056704488 0.08380597 0.026444433 -0.046441622
000030 22 17 d6 3c 04 ce 0a 3d 1b e6 12 3d dd 8a d6 bc
       0.026134077 0.033887878 0.035863977 -0.026189262
000040 fa ad 34 bb 17 23 85 bb 24 10 97 bd 9d a6 66 bc
       -0.0027569518 -0.004063021 -0.073761255 -0.01407781
000050 ec 9b 45 3d f8 c3 ad bd 48 f0 62 3a 0e 16 16 bb
       0.0482444 -0.08484644 0.00086570205 -0.002290133
000060 e9 31 f4 bc e3 2c 18 bd cd ad f7 bc 58 78 86 3d
       -0.029808955 -0.037152182 -0.030234242 0.065659225
000070 e1 76 da bc 3d d0 c3 bb 00 fd b3 bc 6f ab 2e bd
       -0.026668014 -0.0059757517 -0.021971226 -0.04264396
000080 15 07 69 3d a9 79 33 ba 66 95 29 3d 38 e8 48 bd
       0.05689152 -0.0006846437 0.041402243 -0.049049586
000090 11 0b 8f bd 09 b1 09 bd 7d f2 57 3d 49 cf 99 3c
       -0.069845326 -0.0336161 0.05272149 0.0187756
0000a0 44 73 9a 3d d1 19 c1 bc b5 3b 92 bd f9 53 4d 3c
       0.075415164 -0.02357188 -0.071402945 0.012532228
0000b0 8b f4 24 3d dd 2f 16 3d 93 69 0c bd 35 35 f9 bb
       0.040272277 0.03666674 -0.03428037 -0.0076052197
0000c0 19 81 3c bd 29 e6 fe 3c
       -0.046021555 0.031115608
